…
          "base_uri": "https://localhost:8080/"
        },
        "outputId": "f1e631d9-f40a-4a50-8698-987bed161d96"
      },
      "execution_count": null,
      "outputs": [
        {
          "output_type": "stream",
          "name": "stdout",
          "text": [
            "Model: \"sequential\"\n",
            "_________________________________________________________________\n",
            " Layer (type)                Output Shape              Param #   \n",
            "=================================================================\n",
            " lstm (LSTM)                 (None, 80, 50)            10400     \n",
            "                                                                 \n",
            " dropout (Dropout)           (None, 80, 50)            0         \n",
            "                                                                 \n",
            " lstm_1 (LSTM)               (None, 80, 50)            20200     \n",
            "                                                                 \n",
            " dropout_1 (Dropout)         (None, 80, 50)            0         \n",
            "                                                                 \n",
            " lstm_2 (LSTM)               (None, 80, 50)            20200     \n",
            "                                                                 \n",
            " dropout_2 (Dropout)         (None, 80, 50)            0         \n",
            "                                                                 \n",
            " lstm_3 (LSTM)               (None, 50)                20200     \n",
            "                                                                 \n",
            " dropout_3 (Dropout)         (None, 50)                0         \n",
            "                                                                 \n",
            " dense (Dense)               (None, 1)                 51        \n",
            "                                                                 \n",
            "=================================================================\n",
            "Total params: 71051 (277.54 KB)\n",
            "Trainable params: 71051 (277.54 KB)\n",
            "Non-trainable params: 0 (0.00 Byte)\n",
            "_________________________________________________________________\n"
…
